…
2021-04-06 16:51:44.984882: I tensorflow/core/platform/cpu_feature_guard.cc:142] This TensorFlow binary is optimized with oneAPI Deep Neural Network Library (oneDNN) to use the following CPU instructions in performance-critical operations:  AVX2 FMA
To enable them in other operations, rebuild TensorFlow with the appropriate compiler flags.
Found 1376 files belonging to 2 classes.
Using 275 files for validation.
['with_mask', 'without_mask']
Model: "sequential"
_________________________________________________________________
Layer (type)                 Output Shape              Param #
=================================================================
rescaling (Rescaling)        (None, 180, 180, 3)       0
_________________________________________________________________
conv2d (Conv2D)              (None, 180, 180, 16)      448
_________________________________________________________________
max_pooling2d (MaxPooling2D) (None, 90, 90, 16)        0
_________________________________________________________________
conv2d_1 (Conv2D)            (None, 90, 90, 32)        4640
_________________________________________________________________
max_pooling2d_1 (MaxPooling2 (None, 45, 45, 32)        0
_________________________________________________________________
conv2d_2 (Conv2D)            (None, 45, 45, 64)        18496
_________________________________________________________________
max_pooling2d_2 (MaxPooling2 (None, 22, 22, 64)        0
_________________________________________________________________
flatten (Flatten)            (None, 30976)             0
_________________________________________________________________
dense (Dense)                (None, 128)               3965056
_________________________________________________________________
dense_1 (Dense)              (None, 2)                 258
=================================================================
Total params: 3,988,898
Trainable params: 3,988,898
Non-trainable params: 0
_________________________________________________________________
Epoch 1/15
2021-04-06 16:51:45.407063: I tensorflow/compiler/mlir/mlir_graph_optimization_pass.cc:116] None of the MLIR optimization passes are enabled (registered 2)
101/101 [==============================] - 16s 155ms/step - loss: 0.5845 - accuracy: 0.7573 - val_loss: 0.1897 - val_accuracy: 0.9382
…
